ccf2021/CCF/models/CLASS/classification.pt (torch, 77915 bytes, 12 tensors)

fc1.weight f4 [4, 768]
0.020658202 -0.00274551 -0.021616137 0.03596145 -0.011131039 0.027780034 -0.0141340075 0.01683095
0.019815378 -0.015121795 0.016644802 -0.03152412 -0.015674977 0.02269819 -0.0327089 -0.028467102
0.025259092 -0.01758318 0.03535675 -0.0033799435 0.019421373 0.019447388 -0.035346802 0.004028628
-0.030191641 -0.03236179 -0.009379829 -0.019336963 0.009850235 -0.022522982 0.030237483 -0.014319123
-0.01236437 -0.02098846 0.01126749 0.020269798 0.03502044 -0.0011343434 0.0052410886 0.022570712
-0.020634139 -0.00643371 0.02632745 -0.024193171 -0.008399143 -0.029650766 -0.02014059 -0.02483422
-0.033124264 0.007942482 -0.023549316 -0.016528005 -0.009127067 0.014955793 -0.022594247 0.019401478
0.02934446 0.010602893 0.012762224 0.002202253 0.018693818 -0.022398649 0.022919327 0.029555049
0.016700834 0.020942684 -0.026297007 0.031664435 0.030330371 0.017740943 0.0034676574 0.0051731924
0.03457059 -0.018095741 -0.0095593305 0.0046391664 -0.031289678 -0.0117192 0.02887568 -0.017417952
0.002920486 0.012916665 -0.018609386 0.027848309 -0.021328442 0.014554639 -0.005031739 0.0027549907
-0.011641552 0.019100638 0.011270926 0.010048968 -0.0075145676 0.0028288276 0.0038379387 -0.00490864
0.0077602314 0.03326838 0.004286853 0.017724724 -0.031748395 -0.03131313 0.0032846201 -0.012729601
-0.022788355 -0.012764565 -0.01092454 -0.009087144 0.018464655 -0.001319256 0.008056612 0.0018817455
0.030940859 -0.02065591 -0.0053328504 -0.0045521455 0.0050573675 0.0011973317 0.020868825 -0.0046421518
0.015235457 -0.019986598 0.001650496 -0.028376957 0.010071139 0.026395837 0.021522142 -0.019379135
0.005326708 -0.014360435 0.03414946 0.010887736 0.026951134 0.03200785 -0.017365133 -0.028685115
-0.01795305 -0.026153876 0.033229936 0.026609136 -0.0015258832 -0.000529066 -0.020965083 -0.0035636863
-0.035956066 0.0007850797 -0.033864897 0.012295704 -0.007302305 -0.007730671 -0.027079795 -0.005635003
-0.023688516 -0.0045549544 0.020906003 -0.03075684 0.02434382 -0.023253819 -0.033373173 0.014807495
0.027287286 0.0008004235 -0.00998536 -0.01686434 -0.016041111 0.014180573 -0.025720986 0.010407029
0.02516195 0.03357889 0.006085251 -0.018835599 -0.016572569 0.0083773555 0.021314904 -0.011096397
0.013734003 0.0028345874 -0.027368577 0.010013256 -0.0074205603 -0.0044170665 0.021682812 0.034114
-0.026035668 -0.03260074 0.0050774817 -0.027081683 0.028000865 -0.019770786 -0.02988738 0.014503575
-0.019652132 -0.01966863 -0.009817465 -0.00658415 -0.0062678494 -0.01121261 -0.009331557 0.02030428
-0.01566001 0.0017864135 -0.013316201 -0.005966729 -0.027256 0.010059761 0.013532838 -0.01410304
0.004362075 0.005829237 0.032145623 -0.0051290537 0.0071569844 -0.024543785 0.0142828645 -0.028545128
0.006165235 0.008636819 -0.006373905 0.014178714 0.004891881 0.01908744 -0.007138561 -0.029882714
0.009809903 -0.013573674 0.007119578 -0.026637143 -0.022509208 -0.0076635964 -0.0255598 0.020429792
-0.02860664 0.032443117 -0.0029931872 0.02519465 -0.0323932 -0.01507573 0.004659384 -0.021443333
0.02289196 -0.012504551 0.031189447 -0.010971329 -0.021487132 -0.033866625 -5.2853695e-05 0.017430905
-0.026759751 0.01561281 -0.009766005 0.024794498 -0.007657286 -0.014441081 -0.025884042 -0.016209397
00000000: 643b a93c 04ee 33bb 5314 b1bc 504c 133d
00000010: f65e 36bc f492 e33c 5392 67bc 0fe1 893c
00000020: dc53 a23c 68c1 77bc ae5a 883c 701f 01bd
00000030: cf68 80bc 8ef1 b93c c4f9 05bd d733 e9bc
00000040: 28ec ce3c 9a0a 90bc 3dd2 103d 0b82 5dbb
00000050: 9219 9f3c 2150 9f3c cfc7 10bd 9502 843b
00000060: 7654 f7bc cc8d 04bd dbad 19bc 8d68 9ebc
00000070: e162 213c 1e82 b8bc 99b4 f73c c19a 6abc
00000080: ed93 4abc feef abbc 479b 383c d90c a63c
00000090: 9871 0f3d 40ae 94ba 70bd ab3b 37e6 b83c
000000a0: ed08 a9bc dfd1 d2bb aaac d73c c230 c6bc
000000b0: 8f9c 09bc 2ae6 f2bc e1fd a4bc 2271 cbbc
000000c0: 4fad 07bd 2f21 023c 7fea c0bc bd65 87bc
000000d0: b289 15bc 2409 753c 9217 b9bc d9ef 9e3c
000000e0: cb63 f03c c2b7 2d3c a618 513c ad53 103b
000000f0: c723 993c 5f7d b7bc 50c1 bb3c 6e1d f23c
00000100: 30d0 883c fe8f ab3c d26c d7bc 91b2 013d
00000110: 6677 f83c 7455 913c a341 633b e283 a93b
00000120: e499 0d3d 853d 94bc bd9e 1cbc 2604 983b
00000130: 9b29 00bd e301 40bc b18c ec3c 18b0 8ebc
00000140: a065 3f3b 6ba0 533c b672 98bc 2322 e43c
00000150: fcb8 aebc 9576 6e3c 49e1 a4bb 138d 343b
00000160: 35bc 3ebc f178 9c3c b1a9 383c 6da4 243c
00000170: c33c f6bb da63 393b ed85 7b3b a8d8 a0bb
00000180: 8a49 fe3b 6d44 083d bb78 8c3b 7133 913c
00000190: 9b0a 02bd 3242 00bd c842 573b d18f 50bc
000001a0: a5ae babc 7722 51bc d8fc 32bc 3fe2 14bc
000001b0: 3043 973c e3ea acba e1ff 033c e7a4 f63a
000001c0: af77 fd3c 9536 a9bc 31bf aebb 2a2a 95bb
000001d0: 46b8 a53b c9ef 9c3a 19f5 aa3c 311d 98bb
000001e0: 239e 793c efba a3bc 7555 d83a cb76 e8bc
000001f0: 6b01 253c 153c d83c 344f b03c fec0 9ebc
00000200: aa8b ae3b 0848 6bbc 4ee0 0b3d 7a62 323c
00000210: a0c8 dc3c aa1a 033d 5341 8ebc 0cfd eabc
00000220: 4612 93bc a740 d6bc 1d1c 083d 67fb d93c
00000230: 2500 c8ba 05b1 0aba f7be abbc bc8c 69bb
00000240: ab46 13bd cfcd 4d3a ebb5 0abd ec73 493c
00000250: 2d48 efbb 9251 fdbb 72d6 ddbc d5a5 b8bb
00000260: 6b0e c2bc ba41 95bb 1143 ab3c c5f5 fbbc
00000270: b16c c73c cb7e bebc 4fb2 08bd 239b 723c
00000280: 9689 df3c 83d3 513a a399 23bc 1627 8abc
00000290: a668 83bc a255 683c d1b4 d2bc 3e82 2a3c
000002a0: 6f20 ce3c 058a 093d c966 c73b 1d4d 9abc
000002b0: 32c3 87bc 2d41 093c 989c ae3c aacd 35bc
000002c0: 9504 613c 7cc4 393b 1134 e0bc a40e 243c
000002d0: 2c28 f3bb 0abd 90bb 27a0 b13c 1fbb 0b3d
000002e0: c148 d5bc 5b88 05bd 0161 a63b 68da ddbc
000002f0: 1262 e53c 58f6 a1bc 61d6 f4bc 67a0 6d3c
00000300: 82fd a0bc 1b20 a1bc 6fd9 20bc dabf d7bb
00000310: 8862 cdbb 18b5 37bc 63e3 18bc 2955 a63c
00000320: 6c49 80bc 1726 ea3a 322c 5abc 8d84 c3bb
00000330: fa47 dfbc b2d1 243c d6b8 5d3c 7010 67bc
00000340: bdef 8e3b 2f03 bf3b 21ab 033d 9f11 a8bb
00000350: 2385 ea3b 0c10 c9bc ad02 6a3c 79d7 e9bc
00000360: bd05 ca3b 7281 0d3c 31dc d0bb d64d 683c
00000370: 124c a03b 435d 9c3c 97ea e9bb 98cc f4bc
00000380: b7b9 203c 1d64 5ebc 594b e93b 2336 dabc
00000390: 3b65 b8bc e81e fbbb c962 d1bc 615c a73c
000003a0: 7958 eabc 13e3 043d 5929 44bb 0365 ce3c
000003b0: bbae 04bd 3200 77bc bfad 983b eea9 afbc
000003c0: eb87 bb3c e3df 4cbc 0381 ff3c 17c1 33bc
000003d0: c805 b0bc bbb7 0abd 39af 5db8 42cb 8e3c
000003e0: 4437 dbbc dfcc 7f3c 9801 20bc d51d cb3c
000003f0: f8e9 fabb 499a 6cbc c50a d4bc 92c9 84bc

fc1.bias f4 [4]
0.0334701 -0.0021260115 0.007546657 0.0018402566
00000000: f217 093d 8e54 0bbb f349 f73b c434 f13a

fc2.weight f4 [4, 768]
-0.013853049 -0.00051921967 -0.020667674 0.00873782 0.00178314 -0.031256415 0.008653672 0.03557666
0.004573795 0.02811681 -0.0033347812 -0.02573827 0.017205222 -0.022177167 -0.034211796 -0.01500323
-0.006512395 -0.029395575 -0.01659403 -0.0015403667 -0.009434679 -0.034205426 -0.028779054 0.012808058
-0.0051565324 -0.03131616 -0.0100086145 -0.03238458 0.022732077 -0.0077016093 -0.025900146 0.021393461
-0.0080787605 -0.014423879 0.009572347 0.033514306 -0.03119675 0.021749452 0.0016250607 0.005045444
0.01812849 0.02012945 0.025601082 -0.035698842 0.010411291 0.011780769 -0.032964274 0.008947412
-0.0269 -0.013829485 -0.027576774 0.026318071 -0.005558912 0.019481951 -0.028015202 -0.0006624585
0.011980027 -0.012057675 0.014697314 0.016784728 -0.022842323 0.025685703 0.0154899135 0.023262804
-0.0023441282 0.015130412 -0.019442555 0.033846788 -0.019545745 -0.028110465 0.035327204 -0.013082977
-0.02244607 -0.002763409 -0.03150716 0.0048078666 -0.029112177 -0.021949997 -0.0028211835 -0.0047741723
0.023234243 0.008134143 -0.02528584 -0.028820163 -0.015932087 0.030692829 -0.00018480941 -0.0001270605
0.03463583 -0.03427594 0.033560485 0.025286142 -0.007571994 -0.022295767 0.01863243 0.00073624373
-0.019190919 -0.01780895 0.03446948 0.021738729 0.009746841 0.009620091 0.022016848 -0.015215713
-0.0042125387 0.022323761 0.012107182 0.021693857 -0.024762534 -0.02653763 -0.021434102 0.028573597
-0.035932794 -0.031470645 0.008514314 -0.034035064 -0.03459075 0.000121808254 0.002486524 -0.015852138
-0.031936776 0.01362201 -0.0149953505 -0.029437056 -0.016114324 0.013801219 -0.028364168 -0.0084643895
-0.0056783976 0.02746092 -0.013340454 0.023507569 0.024453636 0.019488025 -0.032620054 -0.00095527235
0.008368254 0.035433576 0.0018731165 -0.018194403 -0.0033236227 0.0269151 0.0136092305 0.004464427
-0.026976151 0.025682008 0.019866988 -0.032782186 -0.019206608 -0.01468213 0.028923139 -0.03265943
0.013352714 0.013258336 0.026515571 0.022426484 0.026396113 -0.024138132 -0.020355722 -0.027199198
0.033761512 0.022525128 -0.030325657 0.024188615 -0.02934591 -0.028897356 -0.0311102 -0.0011108868
0.009006313 0.030998832 -0.012973756 0.03237627 -0.032648448 0.0012537858 0.032844942 -0.00042534168
-0.028585413 0.012835369 0.025678163 -0.03387484 -0.00011676249 -0.016680565 -9.515988e-05 0.027382502
-0.004483853 0.016263468 -0.010616641 -0.009315675 0.0008559614 0.009744428 0.018253997 -0.021235863
0.020609152 -0.03458083 0.0053833253 -0.03265325 0.017572947 0.008198516 -0.0069102193 0.0005565532
0.027145755 0.02497003 -0.021793367 0.019927038 0.0027220964 -0.019193852 0.007744617 -0.0039057792
-0.018197393 0.025599886 -0.03451799 -0.004265242 -0.023162019 -0.023255246 -0.020805398 0.033344466
-0.022343757 0.02942345 -0.012195903 -2.4497582e-05 -0.026894765 0.0058161733 -0.026557611 0.014977245
0.007351636 -0.011337386 -0.010499375 0.01453277 -0.024536248 -0.02403575 0.03230584 0.008787861
-0.004764528 0.031110272 0.035856828 0.022622483 -0.018104935 -0.0022334096 -0.0034690984 -0.030747816
-0.023110334 0.024491623 -0.020632671 0.004119706 0.0056397864 0.03357019 -0.019061115 0.0057298746
0.028610414 0.025511563 -0.009570454 -0.01951155 0.03206714 0.026359724 0.020056223 -0.014884554
00000000: e6f7 62bc 3e1c 08ba 414f a9bc 1329 0f3c
00000010: 40b8 e93a ba06 00bd 22c8 0d3c d5b8 113d
00000020: c6df 953b 3955 e63c 588c 5abb 10d9 d2bc
00000030: f7f1 8c3c e4ac b5bc ab21 0cbd 1cd0 75bc
00000040: ee65 d5bb fdce f0bc 34f0 87bc 21e6 c9ba
00000050: e993 1abc fd1a 0cbd 0dc2 ebbc e4d8 513c
00000060: 21f8 a8bb 6045 00bd 2cfb 23bc b1a5 04bd
00000070: 9f38 ba3c c85d fcbb 8b2c d4bc 5741 af3c
00000080: c75c 04bc 2252 6cbc 55d5 1c3c 4c46 093d
00000090: 5490 ffbc e82b b23c fdff d43a 4054 a53b
000000a0: 3382 943c 84e6 a43c 5cb9 d13c f338 12bd
000000b0: 1f94 2a3c 2004 413c 8c05 07bd 2a98 123c
000000c0: 645d dcbc 1095 62bc b0e8 e1bc ff98 d73c
000000d0: 8927 b6bb 9d98 9f3c 2380 e5bc d6a8 2dba
000000e0: e047 443c 8e8d 45bc 01cd 703c 2080 893c
000000f0: d31f bbbc d36a d23c 68c9 7d3c a391 be3c
00000100: f29f 19bb 8ce5 773c fe45 9fbc eea2 0a3d
00000110: 661e a0bc eb47 e6bc 42b3 103d fc59 56bc
00000120: d2e0 b7bc 4f1a 35bb a70d 01bd 4f8b 9d3b
00000130: a97c eebc 7bd0 b3bc 9be3 38bb a970 9cbb
00000140: bd55 be3c 1245 053c 4024 cfbc 4318 ecbc
00000150: 0284 82bc 876f fb3c 66c9 41b9 8b3b 05b9
00000160: 4dde 0d3d ee64 0cbd b876 093d e224 cf3c
00000170: 7d1e f8bb 9da5 b6bc 0aa3 983c 7b00 413a
00000180: 4636 9dbc 13e4 91bc df2f 0d3d 6b15 b23c
00000190: 37b1 1f3c 969d 1d3c ad5c b43c 534b 79bc
000001a0: 5609 8abb 52e0 b63c 345d 463c 51b7 b13c
000001b0: ccda cabc 7265 d9bc 9296 afbc 2d13 ea3c
000001c0: 442e 13bd 5de7 00bd 9f7f 0b3c 5a68 0bbd
000001d0: 08af 0dbd 4f73 ff38 f3f4 223b 58dc 81bc
000001e0: 23d0 02bd da2e 5f3c 0faf 75bc fb25 f1bc
000001f0: 3002 84bc 821e 623c f95b e8bc 39ae 0abc
00000200: da11 babb b9f5 e03c eb91 5abc f292 c03c
00000210: fe52 c83c 5aa5 9f3c 9b9c 05bd 3e6b 7aba
00000220: 001b 093c cc22 113d 5c83 f53a 6e0c 95bc
00000230: 23d1 59bb 0e7d dc3c 40f9 5e3c 544a 923b
00000240: 17fd dcbc 1363 d23c 18c0 a23c 9d46 06bd
00000250: 2d57 9dbc 518d 70bc 38f0 ec3c e5c5 05bd
00000260: 57c5 5a3c 7e39 593c 2f37 d93c bfb7 b73c
00000270: a93c d83c 55bd c5bc 0bc1 a6bc dad0 debc
00000280: 8349 0a3d 9e86 b83c 836d f8bc 3427 c63c
00000290: d566 f0bc 26ba ecbc d1da febc 2d9b 91ba
000002a0: 378f 133c 43f1 fd3c e08f 54bc fb9c 043d
000002b0: 61ba 05bd 1256 a43a 6b88 063d 6500 dfb9
000002c0: f52b eabc 714b 523c 035b d23c 58c0 0abd
000002d0: 62de f4b8 aea5 88bc 9290 c7b8 4551 e03c
000002e0: 49ed 92bb f73a 853c 6bf1 2dbc c6a0 18bc
000002f0: 9962 603a 18a7 1f3c 6889 953c d5f6 adbc
00000300: 86d4 a83c a1a4 0dbd 9b66 b03b 6abf 05bd
00000310: 24f5 8f3c 1253 063c 1f6f e2bb a7e5 113a
00000320: c660 de3c f38d cc3c 0188 b2bc 073e a33c
00000330: 3365 323b 6d3c 9dbc 8ec6 fd3b 1af8 7fbb
00000340: b312 95bc dab6 d13c bc62 0dbd 71c3 8bbb
00000350: 46be bdbc c981 bebc 1570 aabc 3594 083d
00000360: 410a b7bc 7209 f13c 53d1 47bc 2880 cdb7
00000370: 6952 dcbc 9995 be3b 598f d9bc 1e63 753c
00000380: fee5 f03b 72c0 39bc 9205 2cbc db1a 6e3c
00000390: 3e00 c9bc 9fe6 c4bc 2153 043d f6fa 0f3c
000003a0: c21f 9cbb f8da fe3c 9cde 123d c952 b93c
000003b0: cd50 94bc 655e 12bb d059 63bb d8e2 fbbc
000003c0: e251 bdbc a8a2 c83c d905 a9bc 99fe 863b
000003d0: f5cd b83b e580 093d 0e26 9cbc acc1 bb3b
000003e0: 6360 ea3c a0fd d03c 65cd 1cbc b0d6 9fbc
000003f0: d558 033d 59f0 d73c f34c a43c 58de 73bc

fc2.bias f4 [4]
0.031087305 -0.0016108784 -0.011959362 -0.006932665
00000000: ceaa fe3c 1c24 d3ba 33f1 43bc 692b e3bb

fc3.weight f4 [4, 768]
-0.01080604 -0.028360844 0.021076864 0.019010067 0.0025766508 -0.0061113527 -0.0031380865 -0.0060532945
0.022565227 0.011415606 -0.019800872 0.01325351 0.02870254 -0.032265946 -0.004233724 -0.034985226
0.022797264 -0.033807557 0.02290319 0.026690671 0.01325166 -0.027304376 -0.014680159 0.0011319303
0.016105235 -0.009905674 0.0013226974 -0.026715973 0.004260936 0.011881327 -0.0037350445 0.013615778
-0.012182748 0.023332559 0.01012145 0.0053442754 0.03226819 0.007036798 -0.031615198 0.035361428
0.029927948 -0.018470975 -0.020847958 -0.0147719085 0.03547327 -0.027891694 0.0023861763 0.02909495
0.0035451162 -0.0009706763 0.0110429935 0.02084702 0.028943388 0.02670531 -0.0006598345 -0.032967594
-0.014949229 0.010704962 -0.016687283 -0.022388909 -0.035781827 0.005744044 0.017843518 0.018435758
0.021519668 -0.013401975 -0.008313632 -0.019664215 -0.002447074 0.005141395 0.013798333 0.003960332
-0.031331703 -0.007866275 0.028939594 0.011885005 0.006468996 -0.024113517 0.03429217 0.0085096685
-0.016674852 0.019969787 0.0344367 0.012900009 -0.03273017 0.015417539 0.015508453 -0.03137448
-0.024817543 0.011795386 -0.02307217 -0.023051897 -0.0061697382 0.021537289 -0.025065169 -0.03068186
-0.023092788 -0.0045412364 0.00014712314 -0.029399885 -0.019479299 -0.03103648 0.0008991107 -0.0045989337
0.013610418 0.019834248 0.013963798 0.030509636 0.012015016 0.0055949553 -0.008963512 -0.023756584
-0.0008955963 0.022972507 -0.008440619 0.009129761 0.027631285 -0.007102363 -0.018808857 0.020813467
-0.010959977 0.018331422 -0.033105202 0.0043040724 0.016057964 -0.03486078 -0.020364957 -0.0012196698
0.018875027 -0.0073841 -0.005678148 0.020936837 0.027812399 0.020001331 -0.0045733606 0.025136687
0.02830328 0.016511228 -0.00050614716 0.026827106 0.0144605115 0.004756643 0.01000433 -0.021881472
0.009936774 -0.03530418 0.012062149 -0.028583387 0.0013290637 -0.035463687 -0.018151546 0.012793067
-0.008105663 0.003839001 0.021006433 -0.03311306 0.01047856 0.003950679 -0.010282927 0.027580624
-0.033546414 -0.015132843 0.007365358 -0.022256851 0.009718653 0.019382082 0.023360357 -0.00987976
0.01470452 -0.025543591 0.011939825 0.019379398 -0.0021137777 0.0017598512 -0.031561032 -0.014792707
-0.024964623 -0.02563208 -0.010047875 0.02673324 0.031915672 -0.0126890335 0.028224384 -0.030149309
-0.0066360314 -0.035048835 0.022850996 -0.025648056 0.025620611 -0.0061611654 0.016120698 -0.0059219794
0.008810965 -0.02323028 0.0034785147 0.033869304 0.026846368 0.025369184 -0.010637212 0.020797057
-0.03334358 0.025809193 -0.029275768 -0.014345585 0.015807401 -0.009459762 -2.8493763e-05 0.017046351
0.02549729 -0.008414499 -0.030517543 0.026487969 0.009167657 -0.03466721 0.018107373 -0.022005947
-0.009374972 0.010086328 -0.023145603 0.0051899557 -0.019892866 -0.017597849 -0.034044135 -0.009625837
-0.028756853 -0.021611758 0.008675993 0.03241718 -0.023718413 -0.0065207914 -0.015219893 -0.023896089
0.030238202 -0.01724415 -0.005770228 -0.016447082 0.012889978 -0.01449184 0.005417196 -0.0043698307
-0.0009724529 -0.032533772 0.011844854 -0.021262387 -0.02903132 -0.0031344988 -0.016772442 0.035350416
-0.009217728 0.030770047 -0.019181145 0.035613336 -0.0044579706 -0.020383919 0.0282131 0.034814287
00000000: d10b 31bc 0055 e8bc 63a9 ac3c 00bb 9b3c
00000010: 07dd 283b be41 c8bb 5ba8 4dbb b75a c6bb
00000020: b6da b83c 8608 3b3c 7035 a2bc 4025 593c
00000030: 9721 eb3c 4c29 04bd 0dbb 8abb ab4c 0fbd
00000040: 54c1 ba3c cb79 0abd 799f bb3c 65a6 da3c
00000050: 7e1d 593c 6dad dfbc 0d85 70bc 475d 943a
00000060: 20ef 833c 684b 22bc 5c5e ad3a 75db dabc
00000070: 529f 8b3b e6a9 423c a6c7 74bb b614 5f3c
00000080: 269a 47bc ec23 bf3c 70d4 253c 081f af3b
00000090: a62b 043d f194 e63b f07e 01bd 25d7 103d
000000a0: 752b f53c 7150 97bc 56c9 aabc e005 72bc
000000b0: 6b4c 113d 1f7d e4bc 6561 1c3b 8858 ee3c
000000c0: 2e55 683b fc74 7eba aced 343c 5fc7 aa3c
000000d0: af1a ed3c 18c5 da3c bef8 2cba 0709 07bd
000000e0: 9ced 74bc dd63 2f3c c5b3 88bc f268 b7bc
000000f0: f78f 12bd 8938 bc3b 922c 923c 9606 973c
00000100: 044a b03c f593 5bbc e635 08bc d916 a1bc
00000110: 175f 20bb 2679 a83b 6712 623c acc5 813b
00000120: ac55 00bd 8ce1 00bc ba12 ed3c 53b9 423c
00000130: dff9 d33b b689 c5bc f275 0c3d 236c 0b3c
00000140: b399 88bc ae97 a33c 7f0d 0d3d 8f5a 533c
00000150: 1210 06bd d899 7c3c 2b17 7e3c 8782 00bd
00000160: 294e cbbc 6f41 413c d901 bdbc 55d7 bcbc
00000170: 842b cabb f86e b03c 7855 cdbc 8658 fbbc
00000180: 162d bdbc a7ce 94bb 1145 1a39 07d8 f0bc
00000190: 0d93 9fbc 3740 febc 4cb2 6b3a a7b2 96bb
000001a0: 3bfe 5e3c 6f7b a23c 6ac8 643c 58ef f93c
000001b0: a1da 443c e355 b73b b2db 12bc 2b9d c2bc
000001c0: 73c6 6aba d730 bc3c 864a 0abc fe94 153c
000001d0: 015b e23c f0ba e8bb 0815 9abc 0181 aa3c
000001e0: 7a91 33bc c72b 963c 5299 07bd 2d09 8d3b
000001f0: fe8b 833c 2dca 0ebd 69d4 a6bc 54dd 9fba
00000200: cd9f 9a3c 52f6 f1bb c20f babb bb83 ab3c
00000210: d4d6 e33c d5d9 a33c 21dc 95bb 74eb cd3c
00000220: 48dc e73c 8e42 873c f6ae 04ba 85c4 db3c
00000230: c8eb 6c3c 9ddd 9b3b 34e9 233c c640 b3bc
00000240: dacd 223c 1e9b 10bd 52a0 453c b527 eabc
00000250: fa33 ae3a 5f42 11bd 8db2 94bc 039a 513c
00000260: 9dcd 04bc c097 7b3b af15 ac3c 8fa1 07bd
00000270: 44ae 2b3c b374 813b b979 28bc c3f0 e13c
00000280: f767 09bd beef 77bc 1a59 f13b 0054 b6bc
00000290: fc3a 1f3c 2cc7 9e3c 385e bf3c b8de 21bc
000002a0: 3aeb 703c cb40 d1bc 419f 433c 8bc1 9e3c
000002b0: 4e87 0abb cfaa e63a 2446 01bd 1c5d 72bc
000002c0: 9c82 ccbc 5efa d1bc d89f 24bc abff da3c
000002d0: 02ba 023d aae5 4fbc d336 e73c affb f6bc
000002e0: 1173 d9bb 5e8f 0fbd 0332 bb3c df1b d2bc
000002f0: 51e2 d13c 9ae3 c9bb 8e0f 843c 2a0d c2bb
00000300: de5b 103c 6e4d bebc cbf7 633b 8aba 0a3d
00000310: eaec db3c 09d3 cf3c b347 2ebc 975e aa3c
00000320: 4793 08bd cd6d d33c bcd3 efbc bf09 6bbc
00000330: 867e 813c 1efd 1abc e405 efb7 caa4 8b3c
00000340: b1df d03c f8dc 09bc edff f9bc 4cfd d83c
00000350: f133 163c 34ff 0dbd ea55 943c d145 b4bc
00000360: 7c99 19bc 2041 253c d99b bdbc 8110 aa3b
00000370: 5df6 a2bc 5d29 90bc dd71 0bbd b0b5 1dbc
00000380: 7e93 ebbc 240b b1bc c125 0e3c e0c7 043d
00000390: 1e4d c2bc 5dac d5bb dc5c 79bc bbc1 c3bc
000003a0: 1bb6 f73c 9b43 8dbc 2e14 bdbb 08bc 86bc
000003b0: 7c30 533c 2f6f 6dbc bc82 b13b cc30 8fbb
000003c0: 36ec 7eba 2242 05bd eb10 423c 752e aebc
000003d0: 17d3 edbc 2a6c 4dbb 5c66 89bc 99cb 103d
000003e0: f405 17bc 7711 fc3c c721 9dbc 4adf 113d
000003f0: 2b14 92bb 2dfc a6bc 291f e73c 6d99 0e3d

fc3.bias f4 [4]
-0.022897307 -0.021281898 -0.029042887 0.031805918
00000000: 2293 bbbc 6057 aebc 59eb edbc ec46 023d

fc4.weight f4 [4, 768]
0.034773685 0.025378088 -0.02678391 -0.029385295 0.02031429 -0.026377713 0.020811291 0.03177905
0.03110555 -0.00778574 0.011035801 0.020169657 -0.03458432 -0.025776437 -0.008409368 0.021732612
0.027599603 0.0066468413 0.035069887 -0.011039832 -0.014158265 -0.032913767 0.033775225 -0.033304363
0.017780706 0.03531195 -0.002756991 0.031414002 -0.0021796997 0.031423528 0.021364536 0.00988066
0.015824284 -0.024606502 0.011214266 -0.0021601748 -0.0349179 0.032992058 -0.01320599 0.028125416
-0.03397821 0.034155212 -0.015295021 -0.029456435 0.032157935 0.025495049 -0.011595581 -0.013208343
0.015894659 -0.01578869 0.02113259 -0.0062852404 0.012613308 0.023956956 0.0041223215 0.017870339
-0.034353677 -0.0009583566 -0.011497931 -0.023535095 -0.015106039 -0.03001947 0.02827094 0.03213439
0.009431707 -0.0047285366 -0.008946646 -0.012248249 0.019055346 -0.027543373 0.022931233 0.0050848206
0.024247568 -0.007643968 -0.010312299 0.006362209 0.0072190952 -0.018988559 0.0240622 -0.019761357
0.019474976 -0.0070249815 -0.02173366 -0.009895104 -0.0046287696 0.0079335 0.012939597 -0.011316429
-0.018139798 0.021725982 -0.025653902 -0.033352647 -0.025186425 0.035911556 -0.018431516 0.033721946
-0.007805949 0.035614673 -0.011098416 0.009884045 -0.004696094 0.018404158 0.026382858 0.02610005
-0.015751911 -0.013550436 0.027993448 -0.02848038 0.0059474623 -0.027269313 -0.022525256 0.014161495
-0.021139607 0.028250745 -0.0013846447 0.0070238286 0.022502769 -0.028180616 -0.022291169 -0.029395673
-0.03195404 -0.016198011 -0.0027047093 0.028872767 -0.013883839 0.017230012 -0.006129626 0.016780598
-0.023194887 0.022634737 0.021925468 -0.022168212 0.027566928 0.011313908 0.026319802 0.0011132269
0.017347144 0.02136544 -0.031971868 0.013081683 -0.015316214 -0.027955603 0.009593408 -0.0074789547
-0.033755504 -0.004330695 0.00693054 0.0041235085 0.012815048 0.030756986 -0.016512785 -0.025261803
-0.016309325 0.0003485754 0.012972422 0.03270837 -0.034726407 0.035588183 -0.0019764279 0.03514263
-0.005285305 0.011038941 -0.023345545 -0.0010092574 0.008205008 -0.030988859 -0.023442056 -0.02755823
0.028530868 0.033716045 0.02179156 0.0010465995 0.0029558796 -0.03159919 0.0020426295 0.02976808
0.031739578 -0.02068343 0.0024454521 -0.026392352 -0.031300876 0.018963171 -0.0018311157 0.0032999942
0.018853808 -0.010783242 0.0013373872 0.026307447 0.002131311 -0.005904756 0.020949584 -0.016972398
-0.008817013 -0.010456462 0.02645564 -0.02414384 -0.03027901 -0.026898315 0.017898643 0.015587736
-0.017452033 0.020638682 -0.03218081 0.008521881 -0.009243937 -0.03157497 0.026501816 -0.014197163
-0.032990538 0.013205783 -0.025872646 0.030439138 0.0040611783 0.027926533 0.008663063 0.022662353
0.014900492 0.0282986 0.015861968 0.009548263 -0.0024514229 0.0320421 0.012942251 0.00551969
-0.02009441 -0.0142948525 -0.007804211 -0.022887744 0.031902153 0.011672894 -0.02444517 -0.021314552
0.030858181 0.024995195 -0.024645213 -0.014107023 -0.033827126 -0.016488507 -0.03472007 0.018023651
0.020969778 0.0064157555 0.009041285 -0.035959616 0.010057636 -0.0010683183 -0.017633058 0.026684439
-0.012697155 -0.000864328 0.00011692595 -0.035339694 0.015861051 0.008105503 -0.013351053 0.004658167
00000000: da6e 0e3d b5e5 cf3c ee69 dbbc 6eb9 f0bc
00000010: 276a a63c 1316 d8bc 717c aa3c c02a 023d
00000020: 11d1 fe3c 851f ffbb 81cf 343c d63a a53c
00000030: 4aa8 0dbd 1b29 d3bc 72c7 09bc 9708 b23c
00000040: 9018 e23c bfcd d93b 71a5 0f3d 69e0 34bc
00000050: 11f8 67bc 96d0 06bd e457 0a3d 286a 08bd
00000060: d8a8 913c 43a3 103d a2ae 34bb f8ab 003d
00000070: 4bd9 0ebb f5b5 003d ae04 af3c 7ee2 213c
00000080: eea1 813c 9393 c9bc 0abc 373c b891 0dbb
00000090: 1206 0fbd ae22 073d f05d 58bc 4667 e63c
000000a0: bc2c 0bbd 56e6 0b3d f897 7abc 9f4e f1bc
000000b0: 0ab8 033d feda d03c 64fb 3dbc ce67 58bc
000000c0: 8435 823c 4857 81bc 411e ad3c 6bf4 cdbb
000000d0: 0ca8 4e3c 6141 c43c 8a14 873b d164 923c
000000e0: 71b6 0cbd 393a 7bba d161 3cbc accc c0bc
000000f0: 527f 77bc 64eb f5bc 7598 e73c 5a9f 033d
00000100: 7287 1a3c d7f1 9abb f494 12bc e1ac 48bc
00000110: f519 9c3c a4a2 e1bc 48da bb3c 919e a63b
00000120: d6a2 c63c 407a fabb ebf4 28bc 147a d03b
00000130: 298e ec3b e58d 9bbc 171e c53c 92e2 a1bc
00000140: fc89 9f3c d131 e6bb ca0a b2bc 131f 22bc
00000150: efac 97bb 83fb 013c 9a00 543c 8b68 39bc
00000160: ea99 94bc b0fa b13c 2228 d2bc c99c 08bd
00000170: c353 cebc ff17 133d b1fd 96bc 0620 0a3d
00000180: 0cc9 ffbb b1e0 113d 21d6 35bc b1f0 213c
00000190: b1e1 99bb 51c4 963c dd20 d83c c6cf d53c
000001a0: 270a 81bc a602 5ebc 8452 e53c b04f e9bc
000001b0: eee2 c23b e563 dfbc e386 b8bc 9d05 683c
000001c0: f82c adbc 1b6e e73c f77c b5ba 2528 e63b
000001d0: ba57 b83c 09db e6bc f89b b6bc 32cf f0bc
000001e0: 3de2 02bd b1b1 84bc 7e41 31bb 9586 ec3c
000001f0: 0b79 63bc f425 8d3c 08db c8bb 7777 893c
00000200: 3403 bebc 7c6c b93c 0a9d b33c 1c9a b5bc
00000210: 0ad4 e13c f85d 393c a09c d73c b2e9 913a
00000220: 991b 8e3c 9306 af3c eff4 02bd 8e54 563c
00000230: dcf0 7abc 2603 e5bc ab2d 1d3c 0512 f5bb
00000240: 3643 0abd 81e8 8dbb 9519 e33b 7f1e 873b
00000250: 35f6 513c 13f6 fb3c d245 87bc d7f1 cebc
00000260: 229b 85bc 00c1 b639 488a 543c 36f9 053d
00000270: 473d 0ebd eac4 113d f586 01bb b8f1 0f3d
00000280: 5a30 adbb addc 343c 283f bfbc 0f49 84ba
00000290: 4c6e 063c 59dc fdbc 8e09 c0bc ccc1 e1bc
000002a0: 91b9 e93c d619 0a3d 3784 b23c 0d2e 893a
000002b0: 6eb7 413b 276e 01bd a3dd 053b 30dc f33c
000002c0: 5c01 023d 4c70 a9bc e143 203b c634 d8bc
000002d0: 5935 00bd a758 9b3c 0c02 f0ba b744 583b
000002e0: 4d73 9a3c 32ac 30bc 454b af3a b782 d73c
000002f0: 77ad 0b3b af7c c1bb 769e ab3c b309 8bbc
00000300: 3c75 10bc 9551 2bbc 80b9 d83c 4dc9 c5bc
00000310: b00b f8bc db59 dcbc 2da0 923c b463 7f3c
00000320: 91f7 8ebc 7412 a93c 06d0 03bd 5c9f 0b3c
00000330: e273 17bc c154 01bd 561a d93c 389b 68bc
00000340: 1621 07bd 125d 583c dff2 d3bc 805b f93c
00000350: a213 853b 2fc6 e43c 85ef 0d3c 66a6 b93c
00000360: 3121 743c 77d2 e73c f5f0 813c 5170 1c3c
00000370: 0da8 20bb 943e 033d bc0b 543c 84de b43b
00000380: 089d a4bc f534 6abc 78ba ffbb 147f bbbc
00000390: d5ab 023d aa3f 3f3c 3d41 c8bc db9b aebc
000003a0: 4cca fc3c b9c2 cc3c c2e4 c9bc 2521 67bc
000003b0: 508e 0abd e812 87bc a236 0ebd 56a6 933c
000003c0: d0c8 ab3c 423b d23b e621 143c 644a 13bd
000003d0: c8c8 243c d006 8cba 3473 90bc 5399 da3c
000003e0: ba07 50bc 1294 62ba 2436 f538 5bc0 10bd
000003f0: 09ef 813c f2cc 043c 60be 5abc 89a3 983b

fc4.bias f4 [4]
0.0062862816 0.026474228 0.033118583 0.03375379
00000000: 27fd cd3b 7be0 d83c 5aa7 073d 6a41 0a3d

fc5.weight f4 [4, 768]
0.021792201 0.01881597 -0.021588236 0.008731553 0.03168551 0.010132841 -0.03371711 0.019880744
-0.020582687 -0.01639567 -0.03272354 -0.020921485 0.017156795 -0.0021565657 -0.031105269 -0.0154024875
-0.005237953 -0.014181945 -0.017166529 0.0014602322 0.0076380707 -0.0068678185 0.0042112484 -0.012840501
-0.03529357 0.0014186186 0.027827287 -0.03449007 -0.034229405 -0.02836746 -0.028084883 -0.032396905
-0.024074227 0.025476297 0.013540796 -0.029204132 0.022397857 0.031389866 0.007857512 0.026573883
0.019438429 0.009922454 0.028327184 0.031486012 -0.02992958 0.035511598 -0.007880629 -0.011531973
0.0028461844 -0.0138928685 0.02575803 -0.035360634 0.016608702 0.0009202014 -0.0026578952 0.034865778
-0.021089042 -0.022239 0.004633037 -0.012571518 0.010748799 0.018473879 0.027314188 -0.018236438
0.03558765 0.002124093 0.022285542 -0.02347998 0.0042560794 -0.0065871524 0.020041779 0.016555151
-0.01763477 0.0023543101 0.02287213 -0.0013493715 -0.0066949846 0.011747926 -0.02795094 0.00095990085
0.02640472 0.03535599 0.010438671 0.022339992 -0.028896578 -0.031730294 -0.03353245 0.027391922
0.033969726 -0.034268823 0.014408346 0.03581464 -0.01803998 0.005109116 0.035353057 -0.0033073497
-0.0025923904 -0.0011728599 0.015845586 0.0034956695 -0.0141997235 -0.034773152 0.0135785 -0.016569188
-0.011506581 -0.006611848 0.015896978 -0.00953187 0.009383773 -0.025423117 -0.031499 -0.0032284113
0.011742635 0.020477066 -0.027965685 0.017906124 0.013066193 -0.03332001 0.010027619 0.023962202
0.0034736881 -0.030053724 -0.015633775 -0.01714422 0.008981119 0.0055314894 0.0017576703 -0.025852228
0.007821288 0.024663357 0.026011812 -0.031658154 -0.019315127 0.012082831 -0.031530038 -0.024020359
0.028303722 -0.01953025 0.019525243 -0.0077881445 0.029369615 0.00783024 -0.018129824 0.0035096623
-0.029950704 -0.035516128 -0.015278748 -0.0061981417 -0.0014640263 -0.01871819 0.03329337 0.010305649
0.004810142 -0.0014448841 0.027439287 0.018094344 -0.010938844 0.009799975 -0.025590612 -0.01668509
-0.024341708 0.007921193 -0.011254254 0.003620893 0.02195731 0.015994098 0.020800572 -0.031303357
0.030957488 0.025315547 0.018007373 0.009551321 0.009541122 -0.01747861 -0.011129352 0.029139768
-0.030712392 -0.030502839 -0.031438135 0.0058833556 0.027735563 -0.0033300407 0.0075884387 0.014249703
0.02456404 0.004480984 -0.029533466 -0.009388527 0.010961492 0.0011653407 -0.008849967 -0.017399201
-0.015982386 -0.014075708 0.021005422 0.03384798 -0.007090624 -0.034537457 -0.033229478 0.0033899276
-0.02077939 0.019902458 -0.005059226 0.025377112 -0.02060927 0.026525259 0.03447159 0.014641708
0.017160635 -0.011599697 -0.030355355 -0.010525658 0.02459078 -0.028767511 0.009183689 0.0022911755
0.0046840752 0.012345164 -0.025893182 0.031679016 0.03387866 0.009156895 0.025801476 0.0012457633
-0.0359298 0.02466751 0.004514816 0.03527123 0.029687688 -0.020912576 -0.0061396877 0.0040771244
-0.023971006 0.013153777 -0.009211228 -0.01576752 -0.007890746 -0.02689918 0.02492869 0.022518242
-0.0074307467 -0.01029997 -0.014106942 0.02331069 0.027451323 0.016235376 -0.020352397 -0.031699613
0.03322933 0.031483002 0.024708059 -0.008857207 -0.011337265 0.020946035 -0.017277015 -0.02287545
00000000: 8f85 b23c f323 9a3c d0d9 b0bc ca0e 0f3c
00000010: aac8 013d 3704 263c f41a 0abd f1dc a23c
00000020: 069d a8bc 3650 86bc 1e09 06bd 8963 abbc
00000030: 688c 8c3c 2b55 0dbb 7ad0 febc b75a 7cbc
00000040: 22a3 abbb 635b 68bc d2a0 8cbc 4365 bf3a
00000050: c848 fa3b 700b e1bb 83fe 893b f760 52bc
00000060: fe8f 10bd f1f0 b93a 0df6 e33c 7645 0dbd
00000070: 2234 0cbd e062 e8bc 4512 e6bc 9eb2 04bd
00000080: 5037 c5bc abb3 d03c 37da 5d3c 813d efbc
00000090: b67b b73c a992 003d cbbc 003c 79b1 d93c
000000a0: 573d 9f3c ca91 223c 690e e83c 7af7 003d
000000b0: e12e f5bc 9c74 113d c11d 01bc 9af0 3cbc
000000c0: 0d87 3a3b ea9e 63bc 8102 d33c 50d6 10bd
000000d0: f90e 883c ac39 713a 1530 2ebb 6bcf 0e3d
000000e0: edc2 acbc 902e b6bc bbd0 973b c5f8 4dbc
000000f0: bb1b 303c 8856 973c 01c2 df3c 9564 95bc
00000100: 5bc4 113d 5e34 0b3b 2b90 b63c 1659 c0bc
00000110: 9576 8b3b 0ad9 d7bb a82e a43c ab9e 873c
00000120: cb76 90bc c54a 1a3b 555e bb3c 65dd b0ba
00000130: 9a61 dbbb 5f7a 403c 5ff9 e4bc dba1 7b3a
00000140: b64e d83c 71d1 103d f606 2b3c 5c02 b73c
00000150: 84b8 ecbc a0f7 01bd 5359 09bd 0665 e03c
00000160: d723 0b3d 775d 0cbd fc10 6c3c 5fb2 123d
00000170: 95c8 93bc 5f6a a73b 5ece 103d 1fc0 58bb
00000180: 18e5 29bb a6ba 99ba 9ace 813c 9a17 653b
00000190: f5a5 68bc 4b6e 0ebd 5b78 5e3c 1bbc 87bc
000001a0: 1986 3cbc 33a8 d8bb 613a 823c 8f2b 1cbc
000001b0: 66be 193c 2444 d0bc 1805 01bd c193 53bb
000001c0: 2e64 403c 85bf a73c 4b18 e5bc ddaf 923c
000001d0: 9613 563c 907a 08bd e24a 243c 614c c43c
000001e0: d1a6 633b 3a33 f6bc 6712 80bc 0972 8cbc
000001f0: 8b25 133c 7f41 b53b a161 e63a 0dc8 d3bc
00000200: dc24 003c cf0a ca3c b916 d53c fbab 01bd
00000210: c23a 9ebc 11f7 453c a425 01bd 58c6 c4bc
00000220: 35dd e73c e7fd 9fbc 67f3 9f3c b133 ffbb
00000230: 8c98 f03c 684a 003c ff84 94bc 5d02 663b
00000240: 2e5b f5bc 5c79 11bd b753 7abc c819 cbbb
00000250: 92e4 bfba e456 99bc a15e 083d 06d9 283c
00000260: 659e 9d3b 4462 bdba 5bc8 e03c 973a 943c
00000270: d638 33bc 1390 203c 67a3 d1bc 2baf 88bc
00000280: 4368 c7bc e4c7 013c c363 38bc 814c 6d3b
00000290: d1df b33c 0e06 833c f665 aa3c f337 00bd
000002a0: 8f9a fd3c 8d62 cf3c 3384 933c 257d 1c3c
000002b0: 5e52 1c3c 4d2f 8fbc e357 36bc 86b6 ee3c
000002c0: 8e98 fbbc 17e1 f9bc 46c5 00bd 2ac9 c03b
000002d0: b135 e33c d03c 5abb 70a8 f83b 9677 693c
000002e0: 873a c93c 38d5 923b 2bf0 f1bc 56d2 19bc
000002f0: d497 333c 58be 983a 74ff 10bc c588 8ebc
00000300: 7eed 82bc cc9d 66bc 9013 ac3c 2ea4 0a3d
00000310: 7758 e8bb 2677 0dbd a21b 08bd 8c29 5e3b
00000320: 8a39 aabc 7b0a a33c ddc7 a5bb a9e3 cf3c
00000330: c6d4 a8bc 804b d93c 1532 0d3d c6e3 6f3c
00000340: 7694 8c3c a80c 3ebc cbab f8bc cf73 2cbc
00000350: 9a72 c93c d8a9 ebbc 2f77 163c 8c27 163b
00000360: df7c 993b 5f43 4a3c f01d d4bc dbc1 013d
00000370: 5ac4 0a3d cd06 163c 9e5d d33c e148 a33a
00000380: 202b 13bd 8513 ca3c 06f1 933b 9178 103d
00000390: 9833 f33c da50 abbc 6f2f c9bb 6699 853b
000003a0: d85e c4bc f182 573c b1ea 16bc e32a 81bc
000003b0: 3048 01bc ab5b dcbc 4137 cc3c 2d78 b83c
000003c0: 9f7d f3bb 35c1 28bc ce20 67bc 0ff6 be3c
000003d0: 99e1 e03c 0d00 853c 12ba a6bc 74d7 01bd
000003e0: 7a1b 083d 52f4 003d 8e68 ca3c d21d 11bc
000003f0: f0bf 39bc 0597 ab3c 8788 8dbc 4c65 bbbc

fc5.bias f4 [4]
-0.014285406 -0.004891649 -0.0075613647 0.023269566
00000000: 560d 6abc 204a a0bb 53c5 f7bb d19f be3c

fc6.weight f4 [4, 768]
-0.02943887 -0.02693603 0.033665486 0.0022685062 -0.013679221 -0.0063085034 -0.0052217487 -0.012024462
-0.028240038 -0.007387279 0.011123657 -0.005594056 -0.009052405 0.025825514 -0.0014839728 0.013776838
0.011338461 0.034621652 -0.0034610156 0.014909327 -0.026269598 -0.03089372 -0.011743078 -0.032729592
-0.006400188 -0.022262814 0.029785756 0.011687416 -0.0069671897 -0.021583337 -0.0045841364 0.03405617
0.013771976 -0.00046119117 0.006831543 0.024046477 -0.028967416 0.012521262 0.0027642392 0.008856222
-0.029919969 0.02151751 0.031102275 -0.034475464 -0.007307738 -0.014049546 -0.00055389054 -0.028507145
-0.023064325 0.017743915 0.004697832 0.023072738 -0.0267876 -0.023285057 0.005809097 0.004015788
-0.011698681 -0.029168675 0.03368226 0.004742082 -0.006078652 -0.011910191 0.011878746 -0.030761827
0.009095253 0.0009459766 0.017177856 0.01619196 0.003146109 0.032700997 -0.01786916 -0.010029271
-0.021553192 -0.012131606 0.03468984 0.032964595 0.0069946726 0.012547678 -0.025844144 0.002386331
-0.00779775 0.032002773 0.020778706 -0.034944147 -0.0010900843 0.0011025331 -0.012224315 -0.0291676
0.0012825377 -0.0268385 0.030036487 -0.02499851 0.025727645 0.032598842 0.033552 0.034504183
0.013500572 -0.0270712 0.022142114 0.0022248535 -0.02791891 -0.03467183 -0.017110346 0.032844543
-0.022104982 0.026662277 0.019308511 0.02877239 0.0042984374 -0.015886988 0.019818634 -0.025220877
-0.0013464034 -0.0039815777 -0.013587348 0.0071298415 0.014040581 0.0319984 -0.017518459 -0.024392648
-0.034581464 -0.0077662496 -0.02673935 0.011576529 -0.0196094 0.012212154 -0.025226112 -0.035286266
0.016291598 0.017101403 -0.024387125 0.0089724 0.0011857302 0.015906012 -0.03537214 -0.028615575
-0.0132431 0.00047488743 -0.01438082 0.027069453 -0.03336694 -0.022622185 -0.03542567 -0.008564909
0.016089818 0.031457596 -0.027610658 0.0005332515 0.016015073 0.023975806 0.02414627 0.032252435
-0.018863223 -0.01288057 -0.024913082 -0.015230454 0.021651948 0.018780082 0.016930398 -0.015260286
0.00262479 0.0007086318 0.019085865 -0.020602565 0.026594218 -0.026878824 -0.031089144 -0.021926308
-0.0023466963 -0.010290069 0.018357381 -0.009898361 0.016090514 0.0029306808 -0.006327095 -0.00883967
-0.020461524 -0.033330712 0.018592993 0.022162104 -0.031093862 -0.0015971218 -0.016491668 -0.017331667
-0.03180786 -0.008115109 -0.032899246 0.02836084 0.027579645 -0.02683853 0.025602864 0.026364697
0.01794756 0.036033925 -0.0045096884 0.035110176 0.022661455 0.0031400048 -0.019393856 0.035751842
0.028775908 0.024176441 -0.021879856 0.02310509 -0.018461257 -0.022376662 -0.0060655624 -0.017945806
-0.02982591 -0.015103144 0.00075219834 0.005508691 0.013832053 0.022331083 0.02846407 -0.0034382774
-0.012263713 0.03558865 -0.017167304 -0.000371718 0.029458456 0.02273634 0.023953848 -0.007858988
0.028309628 0.011251638 0.02944051 0.022600213 0.008807429 -0.03462564 -0.023378491 -0.023157725
-0.033688813 0.0128343105 -0.029451028 0.030041674 -0.02561668 -0.020134436 0.0004097398 -0.02310904
0.0068916925 0.0044329483 -0.0222304 -0.01893845 -0.011133301 0.0312847 -0.011458024 -0.010564325
-0.03385211 0.031974554 -0.02347594 0.03582671 -0.0115025155 -0.017941512 0.028094111 0.005769686
00000000: c929 f1bc f3a8 dcbc d2e4 093d 38ab 143b
00000010: d01e 60bc 90b7 cebb 341b abbb 4002 45bc
00000020: a757 e7bc fd10 f2bb 0040 363c 584e b7bb
00000030: 8a50 14bc 0790 d33c dd81 c2ba 3fb8 613c
00000040: f4c4 393c 6fcf 0d3d 35d2 62bb 4046 743c
00000050: 5733 d7bc d414 fdbc 0a66 40bc 770f 06bd
00000060: abb8 d1bb 8160 b6bc 4201 f43c 937c 3f3c
00000070: 064d e4bb 8acf b0bc 8636 96bb 7c7e 0b3d
00000080: dba3 613c 08cc f1b9 23db df3b 1efd c43c
00000090: 134d edbc fb25 4d3c 3d28 353b b019 113c
000000a0: b91a f5bc 7d45 b03c 33ca fe3c 2536 0dbd
000000b0: c075 efbb 1130 66bc f732 11ba d187 e9bc
000000c0: 65f1 bcbc b05b 913c 45f0 993b 0a03 bd3c
000000d0: ab71 dbbc 4ec0 bebc 3d5a be3b df96 833b
000000e0: d3ab 3fbc 25f3 eebc 69f6 093d 7863 9b3b
000000f0: 6e2f c7bb f622 43bc 129f 423c 3a00 fcbc
00000100: 4204 153c 6afb 773a 93b8 8c3c 00a5 843c
00000110: f32e 4e3b 7bf1 053d 5862 92bc d051 24bc
00000120: 5290 b0bc a5c3 46bc ef16 0e3d e205 073d
00000130: 9133 e53b c794 4d3c 19b7 d3bc fe63 1c3b
00000140: 4584 ffbb 5715 033d 1b38 aa3c 9821 0fbd
00000150: 29e1 8eba df82 903a 7e48 48bc e4f0 eebc
00000160: d31a a83a 6adc dbbc 140f f63c adc9 ccbc
00000170: c8c2 d23c 5d86 053d d26d 093d 4254 0d3d
00000180: 8131 5d3c 6cc4 ddbc 6163 b53c d9ce 113b
00000190: 33b6 e4bc 0c04 0ebd ff2a 8cbc 0088 063d
000001a0: 8215 b5bc d96a da3c e22c 9e3c 13b4 eb3c
000001b0: e8d9 8c3b 6e25 82bc b05a a23c 039c cebc
000001c0: cd79 b0ba e577 82bb 789d 5ebc 72a1 e93b
000001d0: 770a 663c c110 033d df82 8fbc 17d3 c7bc
000001e0: 4ba5 0dbd 067c febb 7b0c dbbc 7bab 3d3c
000001f0: e4a3 a0bc 7d15 483c fea6 cebc 5588 10bd
00000200: f575 853c 3e18 8c3c 82c7 c7bc f900 133c
00000210: 816a 9b3a 534d 823c 61e2 10bd 366b eabc
00000220: 96f9 58bc 50fa f839 889d 6bbc c2c0 dd3c
00000230: c6ab 08bd 2952 b9bc 821a 11bd d553 0cbc
00000240: cbce 833c aed9 003d bf2f e2bc e7c9 0b3a
00000250: 0b32 833c e968 c43c 66ce c53c 211b 043d
00000260: 0c87 9abc 0709 53bc 8516 ccbc 2789 79bc
00000270: 6d5f b13c b0d8 993c 9eb1 8a3c 4706 7abc
00000280: ab04 2c3b 7ac3 393a f659 9c3c b6c6 a8bc
00000290: 1edc d93c fb30 dcbc a9ae febc cd9e b3bc
000002a0: 08cb 19bb ad97 28bc 3862 963c bc2c 22bc
000002b0: 41d0 833c aa10 403b 8553 cfbb 43d4 10bc
000002c0: ed9e a7bc c985 08bd 5550 983c 4d8d b53c
000002d0: 8eb8 febc 8456 d1ba 8919 87bc 24fb 8dbc
000002e0: f548 02bd 3cf5 04bc 5cc1 06bd fe54 e83c
000002f0: b5ee e13c 7adc dbbc 19bd d13c c7fa d73c
00000300: c306 933c 4f98 133d 02c6 93bb b0cf 0f3d
00000310: 84a4 b93c 8ac8 4d3b dddf 9ebc 8670 123d
00000320: 74bb eb3c ac0d c63c 623d b3bc e346 bd3c
00000330: 103c 97bc 434f b7bc a0c1 c6bb 1503 93bc
00000340: 7855 f4bc 2d73 77bc 2d2f 453a 4082 b43b
00000350: d69f 623c adef b63c 7b2d e93c b954 61bb
00000360: beed 48bc 67c5 113d 72a2 8cbc 25e3 c2b9
00000370: dc52 f13c 9041 ba3c dc3a c43c fcc2 00bc
00000380: 98e9 e73c ca58 383c 392d f13c 1524 b93c
00000390: 094d 103c 9dd3 0dbd 4084 bfbc 45b5 bdbc
000003a0: 48fd 09bd 0047 523c 4843 f1bc f519 f63c
000003b0: 12da d1bc f9f0 a4bc 58d2 d639 2b4f bdbc
000003c0: b5d3 e13b 4442 913b 871c b6bc cf24 9bbc
000003d0: 7368 36bc 6324 003d 70ba 3bbc fe15 2dbc
000003e0: 83a8 0abd c0f7 023d 9d50 c0bc 07bf 123d
000003f0: 0c75 3cbc 14fa 92bc 9f25 e63c a20f bd3b

fc6.bias f4 [4]
-0.007229789 0.0073401723 0.0138295535 0.009824558
00000000: dee7 ecbb d485 f03b 5a95 623c 2ff7 203c
